imwatermark/rivagan_encoder.onnx (onnx, 657164 bytes, 20 tensors)

_attention.0.bias f4 [32]
0	0xbf1f12fd	-0.6213835
1	0xbfb046ca	-1.3771603
2	0x3e6f0756	0.23342642
3	0xbe15f826	-0.14645442
4	0x3e316f5f	0.17327641
5	0x3eb4a7c1	0.35284236
6	0x3f0eeb6a	0.55827963
7	0x3f178abb	0.5919606
8	0xbec79d9d	-0.38987437
9	0xbe68d151	-0.22736098
10	0x3f98a6da	1.1925919
11	0xbced5e78	-0.02897571
12	0x3ed95997	0.42451164
13	0x3ec85f62	0.3913527
14	0xbf09166f	-0.53549856
15	0xbddc7cf0	-0.107660174
16	0x3e82eab9	0.25569704
17	0xbf70d310	-0.94072056
18	0xbec86d7d	-0.39146033
19	0xbb6abe6c	-0.0035819067
20	0x3d6c4063	0.05767859
21	0x3f978045	1.183602
22	0xbe9a0381	-0.30080798
23	0x3eb0e8c7	0.34552595
24	0xbfd2a7d3	-1.6457466
25	0xbedc2b9a	-0.43002015
26	0xbf17bef3	-0.5927574
27	0x3d87f7dc	0.06639072
28	0x3d737d58	0.05944571
29	0x3e99dae5	0.30049816
30	0x3e1c7757	0.152799
31	0xbe3f6af3	-0.18693142

_attention.0.weight f4 [32, 3, 1, 11, 11]
0	0xbe5075de	-0.20357463
1	0xbe14f7ef	-0.14547704
2	0xbe22ddb2	-0.15904883
3	0xbdc83074	-0.09774867
4	0xbe099d6a	-0.13438955
5	0xbcd98adc	-0.026555471
6	0xbd8e655a	-0.06952925
7	0x3cb18724	0.021670885
8	0x3d93220e	0.0718423
9	0x3dd3de4d	0.10345135
10	0x3d73e37b	0.059543114
11	0xbe0593fb	-0.13044731
12	0xbdec12e6	-0.11527042
13	0xbe417244	-0.18891245
14	0xbe111cc5	-0.14171131
15	0xbe01e96a	-0.12686697
16	0xbd88e290	-0.06683838
17	0x3d453b66	0.04815235
18	0x3b9c0f0d	0.0047625364
19	0x3dafd583	0.08585646
20	0x3deaa867	0.114579014
21	0x3da53f74	0.08068743
22	0xbdea3d10	-0.11437428
23	0xbe14b024	-0.14520317
24	0xbe2f889a	-0.17141953
25	0xbde0b1dd	-0.10971425
26	0xbdb605c0	-0.088878155
27	0x3c4c0380	0.012452006
28	0x3d7eb05d	0.062179912
29	0x3d69c22b	0.05706994
30	0x3cddd688	0.027079836
31	0x3d7df695	0.062002737
32	0x3e0231bc	0.12714285
33	0xbdf3ff3c	-0.119139165
34	0xbdb31ed8	-0.08746117
35	0xbdfe24a7	-0.12409335
36	0xbde768d4	-0.11299291
37	0xbd1ffd35	-0.039059836
38	0xbd2ed461	-0.04268301
39	0x3d85d66b	0.065350376
40	0x3d940406	0.0722733
41	0x3d3a8905	0.04554083
42	0x3de8a8b5	0.11360303
43	0x3e0afc0e	0.13572714
44	0xbe12c9e2	-0.14334825
45	0xbd8faf75	-0.07015888
46	0xbdee514d	-0.11636601
47	0xbdc143ba	-0.09436746
48	0xbd2c894e	-0.04212313
49	0xbc1b3715	-0.009473582
50	0x3cf0e037	0.029403789
51	0x3dbfadb0	0.093593
52	0x3e181b66	0.14854202
53	0x3dbc5bce	0.09197198
54	0x3dea7371	0.114478
55	0xbe1f4aea	-0.15555921
56	0xbd8118ca	-0.06303556
57	0xbd156364	-0.03647174
58	0xbc31a968	-0.010843612
59	0xbcb3ea43	-0.02196229
60	0x3dbc87fe	0.09205626
61	0x3dd38075	0.103272356
62	0x3e019f33	0.12658386
63	0x3e14cae8	0.14530528
64	0x3e06692e	0.1312606
65	0x3d9bb2ed	0.07602487
66	0xbe0d3ef6	-0.13793549
67	0xbdf4cb6c	-0.11952862
68	0xbcb4963a	-0.02204429
69	0xbb9bced3	-0.00475488
70	0x3c3075a0	0.0107702315
71	0x3da7cd02	0.08193399
72	0x3da82c1b	0.082115375
73	0x3e205ce3	0.15660433
74	0x3e0aa5c4	0.13539797
75	0x3d82183c	0.063522786
76	0x3ddf53df	0.10904669
77	0xbe0584ff	-0.13039015
78	0xbd91452d	-0.07093272
79	0xbd614212	-0.05499465
80	0xbd7e44d2	-0.06207735
81	0x39cfc9a6	0.00039632356
82	0x3d234462	0.039860137
83	0x3d8f7220	0.070041895
84	0x3dfa5509	0.122232504
85	0x3d343e1b	0.04400454
86	0x3d8e9602	0.069622055
87	0x3dc4320f	0.095798604
88	0xbdffef05	-0.12496761
89	0xbd445dc7	-0.047940996
90	0xbd1f36c6	-0.038870595
91	0xba9d180d	-0.0011985317
92	0x3cad5ca1	0.021162333
93	0x3d396f4a	0.04527215
94	0x3d2a138d	0.04152255
95	0x3df1e32e	0.11810909
96	0x3e042a74	0.1290682
97	0x3d82d432	0.06388129
98	0x3db2f1b7	0.0873751
99	0xbe02fb3a	-0.12791148
100	0xbdc5faef	-0.096670024
101	0xbd09d68d	-0.033651877
102	0x3c5bf60c	0.013425361
103	0x3d4ca4f5	0.049962003
104	0xbc97879e	-0.018497285
105	0x3dce3724	0.10069111
106	0x3d3f4929	0.04670063
107	0x3d0340bf	0.03204417
108	0x3cc0589f	0.023479758
109	0x3de45108	0.11148268
110	0xbdf5dd54	-0.120051056
111	0xbe0fcac9	-0.140422
112	0xbcab5587	-0.020914806
113	0xbd85207e	-0.06500338
114	0xbd19a640	-0.037512064
115	0x3d58f74a	0.05297021
116	0x3c8ce2c2	0.01719797
117	0x3d96fdba	0.07372613
118	0x3dc1fe8d	0.0947238
119	0x3da56856	0.08076541
120	0x3d7f3216	0.062303625
121	0xbeb27dff	-0.34861752
122	0xbe86b3e3	-0.26309118
123	0xbe6d0079	-0.23144712
124	0xbe5a4ff9	-0.2131957
125	0xbe0fc256	-0.14038977
126	0xbde1f245	-0.11032537
127	0x3d0afada	0.033930637
128	0x3df837fb	0.121200524
129	0x3dee5319	0.11636943
130	0x3e210dd3	0.1572793
131	0x3e0a5752	0.13509873
132	0xbea175bd	-0.3153514
133	0xbe6a5724	-0.22884804
134	0xbe92aefe	-0.28649133
135	0xbe603438	-0.2189492
136	0xbe25ac87	-0.16179095
137	0xbd1ac60c	-0.03778653
138	0x3d0e58a9	0.03475252
139	0x3e1abe7a	0.15111724
140	0x3e0add36	0.13560948
141	0x3e09ca09	0.13455977
142	0x3e027944	0.12741572
143	0xbe8bf0f7	-0.2733228
144	0xbe64fe89	-0.22362722
145	0xbe56ce5f	-0.20977162
146	0xbe169e51	-0.1470883
147	0xbe07e719	-0.1327175
148	0x3cba49da	0.022740293
149	0x3dad3a4c	0.08458385
150	0x3e00067f	0.12502478
151	0x3e2d741d	0.16938825
152	0x3e498c23	0.19682364
153	0x3e280345	0.16407497
154	0xbe9ca22c	-0.30592477
155	0xbe847ee3	-0.25878057
156	0xbe389ee9	-0.1802937
157	0xbddd4a4f	-0.10805189
158	0xbcdab05c	-0.026695423
159	0x3ca6b613	0.020350492
160	0x3db3581a	0.087570384
161	0x3e2382ac	0.15967816
162	0x3e2e1d0f	0.17003272
163	0x3e599ffe	0.21252438
164	0x3dfc78f0	0.123277545
165	0xbe7482ec	-0.23878068
166	0xbe48d8b7	-0.1961392
167	0xbe3bb7f7	-0.18331896
168	0xbd8d49e4	-0.06898859
169	0xbc614afd	-0.013750789
170	0x3d4e8975	0.050424058
171	0x3e1b7147	0.1517993
172	0x3e41c599	0.18923034
173	0x3e86e9be	0.26350206
174	0x3e715ec6	0.2357131
175	0x3e2c8d60	0.16850805
176	0xbe4c5325	-0.19953592
177	0xbe6846a9	-0.22683205
178	0xbe111641	-0.14168645
179	0xbd6a1f4d	-0.057158757
180	0xbcdbf484	-0.026849993
181	0x3d2609aa	0.04053656
182	0x3e3f22a7	0.18665563
183	0x3e511663	0.20418696
184	0x3e75ffeb	0.24023406
185	0x3e674d7d	0.22588153
186	0x3e53b5f1	0.20674874
187	0xbe8192a4	-0.2530719
188	0xbe5346bf	-0.20632456
189	0xbe053109	-0.13006987
190	0xbd08d157	-0.033402767
191	0x3cacf50c	0.021112941
192	0x3d770bee	0.06031411
193	0x3e15f219	0.14643134
194	0x3e83d0ff	0.2574539
195	0x3e533f1f	0.20629548
196	0x3e786ec6	0.24261007
197	0x3e4bbbef	0.1989591
198	0xbe379fef	-0.17932104
199	0xbe2d1388	-0.16901982
200	0xbe202ccc	-0.15642089
201	0xbbe886ab	-0.007096132
202	0x3c14d70a	0.009084472
203	0x3d96513e	0.073397145
204	0x3e5df943	0.21677117
205	0x3e61efca	0.22064129
206	0x3e7becdf	0.24602078
207	0x3e315c8e	0.17320463
208	0x3db4ba61	0.088246115
209	0xbe5742ac	-0.21021527
210	0xbe000ab8	-0.12504089
211	0xbe07a915	-0.13248093
212	0xbd62c6c0	-0.055365324
213	0x3d96eca6	0.07369356
214	0x3e0efce1	0.13963653
215	0x3e447c65	0.19188078
216	0x3e1070aa	0.14105478
217	0x3e614004	0.21997076
218	0x3e4da513	0.20082502
219	0x3e13b6cc	0.144252
220	0xbe6f1e68	-0.23351443
221	0xbe13bd25	-0.14427622
222	0xbd8c468a	-0.06849392
223	0xbd9249e9	-0.071430035
224	0x3c0bbd14	0.008528966
225	0x3d32b090	0.043625414
226	0x3e270563	0.16310649
227	0x3dfa0c01	0.12209321
228	0x3e150d18	0.14555776
229	0x3e25b9d4	0.16184169
230	0x3d8336b2	0.06406917
231	0xbe631b54	-0.22178394
232	0xbe344df1	-0.17607857
233	0xbdf2ad74	-0.1184949
234	0xbcbefbc1	-0.023313405
235	0x3d14bb34	0.036311343
236	0x3d440548	0.0478566
237	0x3dba31d9	0.09091539
238	0x3dcaeb6f	0.09908187
239	0x3e1d45b5	0.15358622
240	0x3df2dafd	0.11858175
241	0x3d2a1e1a	0.041532613
242	0xbeb5e3f7	-0.35525486
243	0xbe92b9ba	-0.28657323
244	0xbea2ab3f	-0.31771275
245	0xbe4f4c4a	-0.20243946
246	0xbe12d05a	-0.14337292
247	0xbcce6b62	-0.025197688
248	0xbd2fe6eb	-0.04294483
249	0x3cfa331c	0.030541949
250	0x3d229124	0.039689198
251	0x3d546bf3	0.05186076
252	0x3d569ca7	0.05239549
253	0xbeabe9db	-0.33576855
254	0xbea2e709	-0.3181689
255	0xbe5d382b	-0.21603458

_attention.2.bias f4 [32]
0	0x3e58454e	0.21120188
1	0x3e8c147e	0.27359384
2	0x3dd8d8df	0.1058824
3	0x3c835821	0.016033234
4	0xbcdbe68d	-0.026843334
5	0x3ce5af1e	0.028037604
6	0xbd46b8bb	-0.048516016
7	0x3b30eeeb	0.0026997875
8	0x3db47804	0.08811954
9	0x3d76b372	0.060229726
10	0x3def612b	0.11688455
11	0x3c333a31	0.010939167
12	0x3e1b2a6f	0.15152906
13	0xbce065ef	-0.027392356
14	0x3b956b3f	0.004559904
15	0xbc2a2da9	-0.010386863
16	0xbb7f509c	-0.003895796
17	0x3e8d0c82	0.27548605
18	0x3dcaa841	0.09895373
19	0xbd1c2f15	-0.03813084
20	0xbce5016b	-0.027954778
21	0xbe47e1d8	-0.19519746
22	0x3b9be2b1	0.0047572483
23	0xbcb9b6af	-0.022670118
24	0x3e3ee0b7	0.1864041
25	0x3d09f1db	0.033677917
26	0x3e643502	0.22285846
27	0x3d448015	0.04797371
28	0xbd932c1c	-0.071861476
29	0x3bba2b3e	0.0056814244
30	0x3bb8680d	0.005627638
31	0xbba3c805	-0.0049982094

_attention.2.running_mean f4 [32]
0	0xbed90c3c	-0.42392147
1	0xbf0fa7c5	-0.5611537
2	0x3f2597a8	0.64684534
3	0xbf5625ad	-0.8365124
4	0x3f36994c	0.7132766
5	0xbf25d1ae	-0.6477307
6	0x3f07d2ab	0.5305583
7	0xbf3c50c9	-0.7356077
8	0xbf55f68f	-0.83579344
9	0xbde6e0b4	-0.112733275
10	0xbf3e4a3b	-0.74332017
11	0xbf52f110	-0.8239908
12	0x3f567964	0.8377898
13	0x3f457442	0.7713052
14	0x3f38f960	0.72255516
15	0x3f465118	0.7746749
16	0xbeff6acf	-0.49886176
17	0xbf0b1c8d	-0.5434044
18	0x3f540f35	0.82835704
19	0xbc96e5e6	-0.018420171
20	0x3f53473f	0.8253059
21	0x3f1741e0	0.5908489
22	0xbf57bc87	-0.84272045
23	0xbf4c6d8e	-0.7985467
24	0xbf2d9a5d	-0.67813665
25	0xbf357d0b	-0.70893925
26	0xbee03339	-0.4378908
27	0xbf449203	-0.76785296
28	0x3ca6c514	0.020357646
29	0xbf53cf20	-0.8273792
30	0xbf41173f	-0.75426096
31	0x3f532022	0.82470906

_attention.2.running_var f4 [32]
0	0x3eda86de	0.4268102
1	0x3ecc406c	0.398929
2	0x3eb73026	0.35778922
3	0x3e876ea7	0.2645161
4	0x3eb7f1ce	0.3592667
5	0x3ee53cec	0.44773042
6	0x3ee1a258	0.4406917
7	0x3ebdc198	0.37061763
8	0x3e86c322	0.2632075
9	0x3ec3e5cf	0.38261268
10	0x3eaa7613	0.33293208
11	0x3e92cc9f	0.28671739
12	0x3e860efd	0.2618331
13	0x3ea6841b	0.32522663
14	0x3ecaf828	0.39642453
15	0x3ea8f486	0.32999057
16	0x3efa70e9	0.4891427
17	0x3eba6832	0.3640762
18	0x3e8bfe84	0.27342618
19	0x3ec407e0	0.38287258
20	0x3e8fc586	0.28080386
21	0x3ec6f601	0.3885956
22	0x3e7d6819	0.24746741
23	0x3e9eb55c	0.3099774
24	0x3ea0f189	0.31434277
25	0x3ecd6e65	0.40123287
26	0x3ee37d6c	0.44431627
27	0x3eab765f	0.33488747
28	0x3ec91647	0.3927481
29	0x3e898f6b	0.26867232
30	0x3ead666c	0.33867204
31	0x3e92b10a	0.28650695

_attention.2.weight f4 [32]
0	0x3ef1ca03	0.47224435
1	0x3f3836fe	0.7195891
2	0xbd11c049	-0.035583768
3	0x3c8bcc80	0.017065287
4	0x3e6dfe92	0.23241642
5	0x3e011fa7	0.1260973
6	0x3e4334f6	0.19063172
7	0xbbb9c2c5	-0.0056689703
8	0x3ce821ba	0.028336395
9	0x3f5a5e3a	0.8530003
10	0xbc814743	-0.01578105
11	0x3c9d733c	0.019219987
12	0xbd0fcab3	-0.03510542
13	0x3d83e584	0.06440261
14	0xbb8c7921	-0.0042869006
15	0x3c077614	0.008267898
16	0x3e1cce78	0.15313137
17	0x3f451b9a	0.7699524
18	0xbc193d51	-0.009352998
19	0x3f9a22a2	1.2041819
20	0x3da95972	0.082690135
21	0x3eb42d98	0.35191035
22	0x3c34c892	0.011034148
23	0xbce52114	-0.027969874
24	0x3ec856fe	0.3912887
25	0x3e75bf5a	0.23998776
26	0x3f1c13bc	0.6096761
27	0x3e2d6a53	0.1693509
28	0x3f791836	0.9730257
29	0xbaacc02f	-0.0013179834
30	0x39ebedac	0.00044999772
31	0x3cf1fb90	0.0295389

_attention.3.bias f4 [32]
0	0xbe5b569b	-0.21419756
1	0xbe166486	-0.14686784
2	0xbe5a83f3	-0.21339397
3	0xbe76c2b1	-0.24097706
4	0xbe2763c2	-0.16346648
5	0xbe37a62a	-0.1793448
6	0xbe1ee5d8	-0.15517366
7	0xbd89152d	-0.06693492
8	0xbe3bc2fe	-0.18336102
9	0xbe728a9b	-0.23685686
10	0xbe34df82	-0.17663386
11	0xbe475c57	-0.19468819
12	0xbe422098	-0.18957746
13	0xbd5663d5	-0.0523413
14	0xbe9471de	-0.28993124
15	0xbe2b1c0e	-0.16709921
16	0xbdeb9295	-0.11502568
17	0xbe2fcd22	-0.17168096
18	0xbe52fced	-0.20604296
19	0xbe80fa10	-0.25190783
20	0xbe0b07c9	-0.13577189
21	0xbe72e245	-0.23719127
22	0xbe9abb67	-0.30221102
23	0xbe896480	-0.26834488
24	0xbe8571bb	-0.26063332
25	0xbe416ff8	-0.18890369
26	0xbdea6e75	-0.11446849
27	0xbe010bc6	-0.12602147
28	0xbe5bd826	-0.21469173
29	0xbde6f94c	-0.11278018
30	0xbe88838c	-0.26662862
31	0xbe9b313f	-0.3031101

_attention.3.weight f4 [32, 32, 1, 11, 11]
0	0x3d3b94ec	0.04579632
1	0xbdcf1365	-0.10111121
2	0xbe726613	-0.2367175
3	0xbe7be1cc	-0.24597853
4	0xbe73c05c	-0.23803848
5	0xbe8a2e32	-0.2698837
6	0xbe4ed698	-0.20199049
7	0xbe0c58c9	-0.13705744
8	0xbdfd8b4f	-0.12380087
9	0xbd496d31	-0.0491764
10	0xbcadc40e	-0.02121165
11	0x3d5be296	0.053682886
12	0xbdd79f53	-0.105284356
13	0xbe1c975c	-0.15292114
14	0xbe21b0d6	-0.15790114
15	0xbe1f02e3	-0.15528445
16	0xbe38b60b	-0.18038194
17	0xbdbede0f	-0.09319698
18	0xbd711cbf	-0.058865305
19	0x3c95fa56	0.018307846
20	0x3cede183	0.029038196
21	0x3d87b66e	0.066265926
22	0x3bf1c584	0.007378282
23	0xbdbde759	-0.09272642
24	0xbdc4fdb3	-0.09618702
25	0xbe059772	-0.13046053
26	0xbe128db9	-0.14311875
27	0xbdfe6f19	-0.12423534
28	0xbcd46165	-0.025925348
29	0x3d0247cf	0.031806763
30	0x3da0328c	0.07822141
31	0x3ddaebd8	0.10689515
32	0x3dbc6a94	0.09200016
33	0xbb71a290	-0.0036870576
34	0xbdab99b1	-0.08378924
35	0xbde356bb	-0.11100527
36	0xbe122a6c	-0.14273995
37	0xbe0d709f	-0.13812493
38	0xbdece62e	-0.11567341
39	0x3a97815c	0.0011558938
40	0x3d80a857	0.06282108
41	0x3da08fd5	0.07839934
42	0x3dd82be8	0.105552495
43	0x3ddc8558	0.10767621
44	0xbcd95c20	-0.026533186
45	0xbd2a1a5d	-0.04152905
46	0xbde0fdd2	-0.109859124
47	0xbdf9a42c	-0.121895164
48	0xbe126944	-0.14297968
49	0xbdb346ec	-0.08753762
50	0x3cb43791	0.021999152
51	0x3da7f279	0.08200545
52	0x3df078d9	0.117418
53	0x3defe503	0.117136024
54	0x3def4a08	0.11684042
55	0xbd837ccd	-0.06420288
56	0xbd874c37	-0.06606334
57	0xbde47f0c	-0.11157045
58	0xbe1679ef	-0.14694951
59	0xbe2304e0	-0.15919828
60	0xbdd1f40a	-0.10251625
61	0x3cadced3	0.021216786
62	0x3dbb972e	0.091596946
63	0x3df6d242	0.12051822
64	0x3dd54635	0.104137816
65	0x3da54ea7	0.08071642
66	0xbd4267de	-0.047462337
67	0xbd6d5cae	-0.057949714
68	0xbd914921	-0.07094026
69	0xbdc7c1db	-0.09753772
70	0xbdb79a79	-0.0896501
71	0xbd6fea7d	-0.058573235
72	0x3d363cd4	0.044491604
73	0x3dbf7ec3	0.0935035
74	0x3de91cee	0.11382471
75	0x3db92898	0.09040946
76	0x3dba9ae6	0.09111576
77	0xbd80832e	-0.062750205
78	0xbd93a793	-0.072096966
79	0xbd649b9e	-0.05581247
80	0xbd83da04	-0.064380676
81	0xbd87403c	-0.066040486
82	0xbcb178eb	-0.021664103
83	0x3d147031	0.036239807
84	0x3d712350	0.058871567
85	0x3d4e5ef8	0.050383538
86	0x3d51c6bf	0.05121493
87	0x3d298be5	0.04139318
88	0xbda09d71	-0.078425296
89	0xbd9c0811	-0.07618726
90	0xbd32efe5	-0.043685813
91	0xbbb02fe5	-0.005376803
92	0xbd00d0c1	-0.031449083
93	0xbd06fd13	-0.032956194
94	0x3cf7dac9	0.030255692
95	0x3c81e5f8	0.015856728
96	0x3ce8b84e	0.028408196
97	0x3c9d7d1d	0.019224698
98	0x3cb3c89d	0.021946246
99	0xbdc955bf	-0.09830808
100	0xbd3b9568	-0.04579678
101	0xbb8ecd9f	-0.004358008
102	0x3c18b979	0.009321564
103	0xb9ad9d68	-0.00033114408
104	0xbd04d207	-0.03242686
105	0x3bffe8c9	0.0078097326
106	0xbd0786a4	-0.033087388
107	0xbc5a09fe	-0.013308046
108	0xbc7165f3	-0.014733779
109	0xbc2ececa	-0.01066942
110	0xbe187077	-0.14886652
111	0xbdb3160a	-0.08744438
112	0xbd4fca48	-0.05073002
113	0xbd047b68	-0.032344252
114	0xbd8320ac	-0.06402716
115	0xbdd35399	-0.10318679
116	0xbdde18f9	-0.10844607
117	0xbe0df3d2	-0.13862541
118	0xbdec7b6d	-0.11546979
119	0xbde76954	-0.112993866
120	0xbd8b37ec	-0.067977756
121	0xbd84f6f0	-0.06492412
122	0xbe33f1e9	-0.1757275
123	0xbe4ecf8d	-0.20196362
124	0xbe1c3fe7	-0.15258752
125	0xbe2d004a	-0.16894642
126	0xbe2c6607	-0.16835795
127	0xbddd76e8	-0.10813695
128	0xbdb8b7d1	-0.09019435
129	0xbe0b0df6	-0.13579544
130	0xbe55dc6d	-0.20884867
131	0xbe8cfa41	-0.2753468
132	0xbe091587	-0.13387118
133	0xbe42d661	-0.19027092
134	0xbe5b2216	-0.21399722
135	0xbe2f4ff0	-0.17120337
136	0xbe479a3e	-0.19492432
137	0xbe3f6cf1	-0.18693902
138	0xbd83c3b2	-0.0643381
139	0xbcdec755	-0.027194658
140	0xbd580454	-0.052738503
141	0xbdf59d20	-0.1199286
142	0xbe6b87bf	-0.23001002
143	0xbe07b249	-0.13251604
144	0xbe3aebcd	-0.18254013
145	0xbe696e37	-0.2279595
146	0xbe54ef7e	-0.20794484
147	0xbe77ba6d	-0.2419221
148	0xbe2cd232	-0.16877058
149	0xbd0134ed	-0.031544615
150	0xbcb93dab	-0.022612413
151	0xbb82f5a3	-0.0039965673
152	0xbd534aae	-0.051584892
153	0xbe313ad5	-0.17307599
154	0xbe25559d	-0.1614594
155	0xbe32922c	-0.17438573
156	0xbe7f2019	-0.24914588
157	0xbe7b36ce	-0.24532625
158	0xbe7b56a3	-0.24544768
159	0xbe4087af	-0.18801759
160	0xbd128075	-0.035767037
161	0x3cf1bbfc	0.029508583
162	0x3d5a4a5f	0.053293582
163	0xbccbc7ae	-0.024875488
164	0xbe1b0b27	-0.15140973
165	0xbe2f77af	-0.171355
166	0xbe34cf83	-0.17657284
167	0xbe895993	-0.26826152
168	0xbe834b27	-0.25643274
169	0xbe6fd7b3	-0.23422126
170	0xbe1cd76c	-0.15316552
171	0xbc6c16ec	-0.014409762
172	0x3d5e3bd6	0.054256283
173	0x3d760e3d	0.060072172
174	0xbcbcf41f	-0.023065625
175	0xbe0d2ed6	-0.13787398
176	0xbe57ab28	-0.21061385
177	0xbe3cfff2	-0.1845701
178	0xbe814d4c	-0.25254285
179	0xbe861932	-0.26191097
180	0xbe61e283	-0.22059064
181	0xbe1d88aa	-0.15384164
182	0xbb64b119	-0.0034895597
183	0x3d6a687d	0.057228554
184	0x3d961986	0.07329087
185	0xbc6d30ca	-0.014476964
186	0xbdd3b47d	-0.1033716
187	0xbe78274c	-0.2423374
188	0xbe4026eb	-0.18764846
189	0xbe553d11	-0.20824076
190	0xbe497b06	-0.19675836
191	0xbe549356	-0.20759329
192	0xbde8998e	-0.11357413
193	0x3c35939f	0.011082559
194	0x3d396eb0	0.045271575
195	0x3d51d58a	0.051229037
196	0xbcdddbd2	-0.027082358
197	0xbd86191e	-0.065477595
198	0xbe7d50ec	-0.247379
199	0xbe5f1eec	-0.2178914
200	0xbe38e8b7	-0.18057524
201	0xbe209db2	-0.15685156
202	0xbe1fd976	-0.15610299
203	0xbe09c0b5	-0.13452418
204	0x3bb2c1e9	0.005455245
205	0x3c364b12	0.011126297
206	0x3c7f35f6	0.01557683
207	0xbd4182ac	-0.04724376
208	0xbd960599	-0.073252864
209	0xbe94750c	-0.2899555
210	0xbe60fed3	-0.21972208
211	0xbe246b64	-0.16056591
212	0xbe03f382	-0.1288586
213	0xbe151789	-0.14559759
214	0xbe1b6beb	-0.15177886
215	0xbd0f0f5f	-0.03492677
216	0xbca7b068	-0.02046986
217	0xbd027e07	-0.03185847
218	0xbd7c24bb	-0.061558466
219	0xbdacccae	-0.08437477
220	0xbea4be05	-0.32176223
221	0xbe628a29	-0.22123016
222	0xbe247c8b	-0.16063134
223	0xbe105c6b	-0.14097755
224	0xbe0eed28	-0.13957655
225	0xbe42f36c	-0.1903817
226	0xbde94201	-0.11389542
227	0xbdab5fe6	-0.083679006
228	0xbdb99ff2	-0.0906371
229	0xbdbdc931	-0.0926689
230	0xbdfe3469	-0.1241234
231	0xbeac2cdc	-0.33627975
232	0xbe806ccf	-0.25083014
233	0xbe3a6ea7	-0.18206273
234	0xbe36b06c	-0.17840737
235	0xbe56e8e9	-0.20987286
236	0xbe8bb630	-0.27287436
237	0xbe3a05e2	-0.18166307
238	0xbe36f9d2	-0.17868736
239	0xbe2acddb	-0.1668009
240	0xbe21ba72	-0.1579378
241	0xbe04df4b	-0.12975805
242	0xbe063900	-0.13107681
243	0xbe2d02cd	-0.168956
244	0xbe210fbc	-0.15728658
245	0xbe2e0c66	-0.16996917
246	0xbe1e169c	-0.15438312
247	0xbe36fb97	-0.17869411
248	0xbe060568	-0.13088
249	0xbe00c879	-0.12576474
250	0xbdf4fb93	-0.119620465
251	0xbdc88976	-0.097918436
252	0xbd81c41b	-0.06336232
253	0xbe1d862d	-0.15383215
254	0xbe0f1f73	-0.1397684
255	0xbe21f47e	-0.15815923

_attention.5.bias f4 [32]
0	0xbed0a3a7	-0.40749857
1	0xbe89f60b	-0.26945528
2	0xbec0abd5	-0.37631097
3	0xbf027afd	-0.50968915
4	0xbdfe8ba9	-0.12428982
5	0xbedf82e7	-0.43654558
6	0xbec8cc41	-0.39218333
7	0xbe0c1a2d	-0.1368186
8	0x3e5d1d62	0.2159324
9	0xbd5bdc41	-0.053676847
10	0x3ce8dcd5	0.028425613
11	0xbe8bcd5e	-0.2730512
12	0xbee1eb01	-0.44124606
13	0x3f4c36ca	0.797711
14	0x3ec78cbb	0.38974556
15	0xbed67245	-0.41884056
16	0x3dcf6807	0.101272635
17	0xbee8dea0	-0.4548235
18	0xbea806f6	-0.3281781
19	0xbde25848	-0.110519946
20	0xbeb5bc90	-0.35495424
21	0xbf166fd4	-0.58764386
22	0xbe4cac2a	-0.1998755
23	0xbe328806	-0.17434701
24	0xbec069b6	-0.3758065
25	0xbf00a963	-0.50258464
26	0xbd90c735	-0.07069246
27	0x3ef22a07	0.4729769
28	0xbed414ec	-0.41422212
29	0x3e786aaa	0.24259439
30	0xbe1eab07	-0.15494929
31	0x3e67af51	0.22625472

_attention.5.running_mean f4 [32]
0	0xbf758c45	-0.9591716
1	0xbf5943e4	-0.8486922
2	0xbf77929e	-0.96708095
3	0xbf765a2b	-0.96231335
4	0xbf6988a4	-0.9122412
5	0xbf75f235	-0.96072704
6	0xbf70e763	-0.9410307
7	0xbf17b1af	-0.592555
8	0xbf6e2ce8	-0.9303727
9	0xbf6f9f9f	-0.9360294
10	0xbf5b8e10	-0.85763645
11	0xbf766651	-0.9624987
12	0xbf708f9c	-0.9396913
13	0xbefe21ba	-0.49635106
14	0xbf66b6d2	-0.9012271
15	0xbf6d1230	-0.92605877
16	0xbf14d79a	-0.5814148
17	0xbf77e3d0	-0.9683199
18	0xbf6fde9f	-0.9369907
19	0xbf6e2b90	-0.9303522
20	0xbf68e600	-0.9097595
21	0xbf7695bf	-0.96322244
22	0xbf751b9c	-0.95745254
23	0xbf74debb	-0.9565236
24	0xbf6d6977	-0.9273905
25	0xbf76def1	-0.9643393
26	0xbf4151f8	-0.755157
27	0xbf522c5e	-0.8209895
28	0xbf72e6fe	-0.94883716
29	0xbf39572d	-0.72398645
30	0xbf76d508	-0.9641881
31	0xbf6730a0	-0.9030857

_attention.5.running_var f4 [32]
0	0x3d8b4e00	0.06801987
1	0x3e809130	0.2511077
2	0x3d634bce	0.055492215
3	0x3d80a55d	0.062815405
4	0x3e10d4fa	0.14143744
5	0x3d8978d8	0.06712502
6	0x3dc9af28	0.098478615
7	0x3f13f72c	0.5779903
8	0x3deb0efd	0.11477468
9	0x3dde1f87	0.10845857
10	0x3e752e6d	0.23943491
11	0x3d79a6a8	0.06094995
12	0x3dcb4cb7	0.099267416
13	0x3f2c537d	0.67314893
14	0x3e268630	0.16262126
15	0x3dfcae7e	0.12337969
16	0x3f1abc37	0.60443443
17	0x3d4eac22	0.050457127
18	0x3dda3514	0.10654655
19	0x3df5b736	0.11997835
20	0x3e18c070	0.14917159
21	0x3d73156c	0.0593466
22	0x3d929ebf	0.07159185
23	0x3d95cc6e	0.073143825
24	0x3e021d49	0.12706484
25	0x3d73f5c1	0.05956054
26	0x3ec1dba9	0.378629
27	0x3e9311b6	0.2872445
28	0x3db1ff29	0.08691246
29	0x3edb7be3	0.42867956
30	0x3d813c1f	0.06310295
31	0x3e290e78	0.16509426

_attention.5.weight f4 [32]
0	0x4018cc8b	2.3874843
1	0x4007d1e3	2.1221855
2	0x4015261e	2.3304515
3	0x4007bd77	2.120939
4	0x400efe53	2.2342727
5	0x40147c93	2.3201034
6	0x401c8ec5	2.446214
7	0x40061c6b	2.0954845
8	0x400da4f1	2.2131922
9	0x4005555d	2.0833352
10	0x4005600b	2.083987
11	0x401f0a68	2.4850101
12	0x401bf99a	2.4371095
13	0x3fca9771	1.5827466
14	0x40017567	2.0227907
15	0x40144d19	2.3172057
16	0x400655c9	2.098986
17	0x402572b5	2.5851262
18	0x40191bf2	2.3923306
19	0x40007d92	2.0076642
20	0x4013a5a8	2.3069859
21	0x401c4434	2.4416628
22	0x3ffe00a6	1.9843948
23	0x40043b14	2.0661058
24	0x3fefb87c	1.8728175
25	0x400a5ae2	2.161797
26	0x40057a4a	2.085589
27	0x3fe4d6b9	1.7878028
28	0x400880cd	2.1328614
29	0x3fe4cc26	1.7874801
30	0x4003d44e	2.059833
31	0x3fe2578f	1.7682971

_conv.0.bias f4 [32]
0	0x3d9d7109	0.07687575
1	0x3cdccc5a	0.026952911
2	0xbd82c40e	-0.06385051
3	0x3d9c0224	0.07617596
4	0x3e9accb3	0.30234298
5	0x3ae39c56	0.0017365317
6	0xbdac1cf7	-0.08403962
7	0xbc8b7b8a	-0.017026681
8	0x3e04994e	0.12949106
9	0x3e843e73	0.25828895
10	0xbe6cf59b	-0.23140566
11	0xbccc794c	-0.024960183
12	0xbe0711d2	-0.13190392
13	0xbe275355	-0.16340382
14	0xbcd3bd47	-0.02584709
15	0xbb646321	-0.0034849124
16	0xbd866b81	-0.065634735
17	0xbd0dbdf0	-0.034604967
18	0x3d8b5c82	0.06804754
19	0x3d35f4d4	0.04442294
20	0x3bf9e141	0.0076257293
21	0x3e5f2a83	0.2179356
22	0x3c85ad49	0.01631798
23	0xbdbac971	-0.09120453
24	0xbe7d017c	-0.24707597
25	0x3eb4613f	0.35230443
26	0xbc5659af	-0.013082906
27	0x3e3fc078	0.18725765
28	0xbda6aeb5	-0.081387915
29	0xbcb918b4	-0.022594787
30	0x3d62d33c	0.05537723
31	0xbe44c30b	-0.19215028

_conv.0.weight f4 [32, 4, 1, 11, 11]
0	0x3db4068f	0.087903135
1	0x3dc6ab30	0.0970062
2	0x3d554473	0.05206723
3	0x3bb155d1	0.0054118414
4	0x3c29e421	0.010369332
5	0xbb83e0e2	-0.004024611
6	0xbd11020a	-0.035402335
7	0xbd8688fc	-0.065690964
8	0xbcfe82ca	-0.031068224
9	0xbd05d4a0	-0.032673478
10	0xbdd0e468	-0.10199815
11	0x3e167f0b	0.146969
12	0x3dc21ca7	0.09478121
13	0x3d3e1217	0.04640397
14	0x3d834e92	0.064114705
15	0x3c75028c	0.0149542205
16	0x3c54ea72	0.012995349
17	0xbc38a59d	-0.011269954
18	0xbd4e0c95	-0.050304968
19	0xbdadd45f	-0.08487772
20	0xbdd6f872	-0.10496606
21	0xbddbeec9	-0.10738904
22	0x3e1bacfe	0.1520271
23	0x3ddd80a6	0.10815553
24	0x3d8ecc5c	0.06972572
25	0x3c7987c0	0.015230119
26	0x3beac39f	0.007164433
27	0x3c938dbb	0.018011918
28	0xbd62d808	-0.055381805
29	0xbda6a9b4	-0.08137837
30	0xbccbb72d	-0.024867618
31	0xbd51998e	-0.05117183
32	0xbd30966f	-0.043112215
33	0x3dd18640	0.10230684
34	0x3dcda258	0.1004073
35	0x3df62b09	0.12019927
36	0x3c85662c	0.01628407
37	0x3d16d4bd	0.036823977
38	0xbcbfce32	-0.023413751
39	0xbda86cc2	-0.08223869
40	0xbd185133	-0.037186813
41	0xbd70cbd5	-0.05878814
42	0xbd269b14	-0.040675238
43	0xbd86724d	-0.0656477
44	0x3e420f1a	0.18951073
45	0x3e1affe7	0.15136681
46	0x3dc10c17	0.09426134
47	0x3d55c265	0.052187342
48	0xbcc73989	-0.024319427
49	0xbc582ca0	-0.013194233
50	0xbd38e65b	-0.04514156
51	0xbd7081d9	-0.058717582
52	0xbdc2c8c4	-0.09510949
53	0xbdad083a	-0.08448835
54	0xbde78142	-0.11303951
55	0x3e2a5af9	0.16636266
56	0x3dfb30fc	0.122652024
57	0x3db95691	0.09049714
58	0x3d8d9632	0.06913413
59	0x3c9fd62f	0.01951131
60	0xbd8c2a38	-0.0684399
61	0xbdb832b7	-0.08994048
62	0xbd40df9a	-0.047088243
63	0xbd5136da	-0.0510777
64	0xbd4e4369	-0.050357256
65	0xbe052ba4	-0.13004929
66	0x3e21671c	0.1576199
67	0x3e184907	0.14871608
68	0x3d97034c	0.07373676
69	0x3d1b7af5	0.037959058
70	0xbc95da02	-0.01829243
71	0xbd4ecccf	-0.05048829
72	0xbc9208e5	-0.017826507
73	0xbd851c8f	-0.06499588
74	0xbd6ab7fe	-0.057304375
75	0xbdf1d1c9	-0.118075915
76	0xbd7aefc9	-0.061263833
77	0x3e11f93b	0.1425523
78	0x3d7ee62a	0.06223122
79	0x3d2d885b	0.042366367
80	0xbc8d57c8	-0.017253771
81	0xbc944678	-0.018100008
82	0xbd2381b6	-0.039918624
83	0xbdc09fc8	-0.09405476
84	0xbd1e5f70	-0.038665235
85	0xbd11b6f6	-0.035574876
86	0xbdf65823	-0.120285295
87	0xbe097e01	-0.13426973
88	0x3e1cebfb	0.15324394
89	0x3d90ef32	0.07076873
90	0x3d5fdbe0	0.05465305
91	0x3cae0c9e	0.02124625
92	0xbd0ce3b0	-0.034396827
93	0xbd710bd7	-0.058849182
94	0xbdc0e05d	-0.09417794
95	0xbdb93995	-0.09044186
96	0xbd44cfbe	-0.04804968
97	0xbdf03196	-0.11728208
98	0xbd8720aa	-0.06598027
99	0x3dafcfeb	0.08584579
100	0x3d4395ca	0.04775027
101	0x3d2fb0f0	0.04289335
102	0xbc9576e5	-0.01824517
103	0xbd5f5e0e	-0.054533057
104	0xbcbf90ea	-0.02338453
105	0xbd999604	-0.07499316
106	0xbd1bf0f5	-0.03807159
107	0xbdebd1d1	-0.11514629
108	0xbdb0b258	-0.08627766
109	0xbdcb589f	-0.099290125
110	0x3d508230	0.050905406
111	0x3d15cb2d	0.036570717
112	0x3c89b4fa	0.01680993
113	0xbb9a0387	-0.0047001275
114	0xbd429c38	-0.047512263
115	0xbd853744	-0.06504682
116	0xbd645d3c	-0.055752978
117	0xbddcb513	-0.10776725
118	0xbdc6e84f	-0.09712278
119	0xbde9525b	-0.11392661
120	0xbdf90193	-0.121585034
121	0x3dab3c96	0.08361165
122	0xbbf7fab9	-0.0075677303
123	0x3b09886e	0.002098586
124	0xbbc1ec1f	-0.0059180404
125	0xbdb90176	-0.09033482
126	0xbdb1503b	-0.08657881
127	0x39a420fc	0.00031305093
128	0xbab9c673	-0.0014173522
129	0x3d483fc9	0.048888955
130	0x3d7837e7	0.060600188
131	0xbc2e3084	-0.010631684
132	0x3dad018b	0.0844756
133	0x3d54ebf9	0.051982854
134	0xbd449264	-0.04799117
135	0xbc562083	-0.013069275
136	0xbdb856f4	-0.0900096
137	0xbdad5229	-0.084629364
138	0xbc5b8080	-0.013397336
139	0x3b0edacb	0.0021797891
140	0x3d6cd94c	0.057824418
141	0x3d16911e	0.03675949
142	0x3bd06b08	0.0063604154
143	0x3d355fe6	0.04428091
144	0x3cb929b5	0.022602895
145	0xbcdc9301	-0.026925566
146	0xbcf9cd82	-0.030493502
147	0xbd3e25b5	-0.04642268
148	0xbd675444	-0.056476846
149	0xbc65fd5a	-0.0140374545
150	0x3caf3522	0.02138764
151	0x3c1e5813	0.009664553
152	0x3bc0f8c0	0.0058890283
153	0x3c3b8583	0.011445406
154	0x3da8e687	0.082470946
155	0xbb9ea6d1	-0.0048416634
156	0x3c721182	0.014774682
157	0xbd8d1aae	-0.06889854
158	0xbca6e807	-0.020374311
159	0xbd0088bc	-0.0313804
160	0xbd0fda9a	-0.035120584
161	0x3d03012a	0.031983532
162	0x3d20b1c1	0.03923202
163	0x3d922f1a	0.0713789
164	0x3c8db8ba	0.017299999
165	0x3dc4fd3c	0.09618613
166	0xbbf19457	-0.00737242
167	0x3d08a004	0.033355728
168	0xbd6b2ce4	-0.057415858
169	0xbd93fdd1	-0.07226146
170	0xbd583014	-0.052780226
171	0xbc2ba20e	-0.010475649
172	0xbc49d40e	-0.012318624
173	0x3b9f22fa	0.0048564645
174	0x3cf8da8a	0.030377645
175	0x3cc6d0ff	0.024269579
176	0x3d2758ea	0.04085628
177	0x3bc88d1b	0.0061203367
178	0x3cedd1fd	0.029030794
179	0xbd526402	-0.051364906
180	0x3b9405a7	0.0045172754
181	0xbcebb71f	-0.028773842
182	0xbb7c3ccf	-0.0038488393
183	0x3d122a02	0.035684593
184	0x3be9e802	0.007138253
185	0x3cead047	0.028663768
186	0x3dc528b6	0.096269056
187	0x3d3ab859	0.045585964
188	0x3d995b1c	0.07488081
189	0x3c476fd3	0.012172657
190	0x3c50b8ee	0.012739403
191	0xbca6765c	-0.02032011
192	0x3c14fe56	0.009093842
193	0x3cc510ae	0.024055805
194	0x3b83ff5e	0.004028245
195	0x3dba8fc1	0.0910945
196	0x3dcc7f0b	0.09985169
197	0x3cd551ae	0.026039924
198	0x3d71a65b	0.05899654
199	0x3c9d5063	0.01920337
200	0xba884912	-0.0010397753
201	0xbd47cf9f	-0.048781987
202	0xbd532ebf	-0.051558252
203	0xbcef70b1	-0.02922854
204	0x3d10d76f	0.035361703
205	0x3cdb7007	0.026786817
206	0x3c122357	0.0089195585
207	0x3d06c45d	0.03290211
208	0x3cd0b389	0.025476234
209	0x3dd62426	0.104561135
210	0x3a8b22d7	0.0010615241
211	0x3d21b5c8	0.03948
212	0xbc91a4ab	-0.017778715
213	0xbd3db607	-0.046316173
214	0xbd8c4005	-0.06848148
215	0xbd347efc	-0.044066414
216	0x3d7527cc	0.059852406
217	0x3d4b7097	0.04966792
218	0x3cefd613	0.029276883
219	0x3cd404b2	0.025881145
220	0x3d413085	0.047165412
221	0x3c4b618c	0.012413394
222	0xbce396c0	-0.027781844
223	0x3c42746d	0.011868578
224	0xbd8004be	-0.062509045
225	0xbd16808a	-0.03674368
226	0x3c831c85	0.01600481
227	0x3d846561	0.06464649
228	0x3cbc6b7d	0.023000473
229	0x3d06ba70	0.032892644
230	0x3d932885	0.07185463
231	0x3ce47b9a	0.027890969
232	0xbb84cd99	-0.0040528295
233	0x3a8eab76	0.001088484
234	0xbbd179c6	-0.0063926904
235	0xbca81711	-0.020518811
236	0x3c8653d4	0.016397394
237	0xbb348893	-0.0027547225
238	0xbc0de93d	-0.008661565
239	0x3bd773e3	0.006575094
240	0x3d5cb8de	0.05388724
241	0x3cc99412	0.024606738
242	0x3d00da47	0.031458165
243	0x3da55a5f	0.080738775
244	0x3d81cbad	0.06337676
245	0x3d003993	0.031304907
246	0x3ca4c7d8	0.020114824
247	0xbd262ad6	-0.040568195
248	0x3c4e3d2c	0.012587827
249	0xbbb8b5e7	-0.005636919
250	0x3bb3c507	0.005486134
251	0xbd37b0bc	-0.04484628
252	0xbdafb972	-0.08580293
253	0x3df1725f	0.11789393
254	0x3db4180c	0.08793649
255	0x3d965e83	0.073422454

_conv.2.bias f4 [32]
0	0xbd4c98b8	-0.04995033
1	0xbb9b8ff5	-0.0047473856
2	0xbc11ca1f	-0.008898287
3	0xbbf9267b	-0.007603464
4	0xbd4fd782	-0.050742634
5	0x3bdfba54	0.006827632
6	0x39baf8af	0.00035661968
7	0x3d757afe	0.059931748
8	0x3bf879e7	0.0075828913
9	0xbd2aa8f8	-0.041665047
10	0x3df147fd	0.11781309
11	0xbc8ae104	-0.016952999
12	0x3c7b47e2	0.015336962
13	0x3ce44030	0.027862638
14	0xbd41479d	-0.047187436
15	0xbd2505a8	-0.040288597
16	0x3cc6056f	0.024172513
17	0xbd4fdddd	-0.050748695
18	0xbd120431	-0.03564853
19	0x3db9ae44	0.09066442
20	0xbdb15eac	-0.08660635
21	0xbd38a8c3	-0.04508282
22	0x3cc54887	0.024082435
23	0xbce06768	-0.027393058
24	0x3cca4306	0.024690162
25	0xbcef2a61	-0.029195013
26	0x3d185c9a	0.037197687
27	0xbe10ab01	-0.14127733
28	0xbcbb5475	-0.02286742
29	0x3bb069aa	0.00538369
30	0xbccb3f10	-0.024810344
31	0x3d7a9f4b	0.06118707

_conv.2.running_mean f4 [32]
0	0x3d1028c7	0.03519514
1	0x3eed452a	0.4634183
2	0x3d0c302a	0.03422562
3	0x3ee73094	0.4515425
4	0x3f414e17	0.7550978
5	0xbdbd3893	-0.09239306
6	0xbd1c81f2	-0.038209863
7	0x3f42116d	0.7580784
8	0x3f45f852	0.7733203
9	0x3f099faf	0.5375928
10	0xbf1e65ba	-0.6187397
11	0xbd918925	-0.07106236
12	0xbf44e06b	-0.76904935
13	0xbf3b7ce0	-0.7323742
14	0x3f08e3c0	0.5347252
15	0x3ef7f0b2	0.48425823
16	0xbc3c8211	-0.01150562
17	0xbd0d6edf	-0.034529563
18	0x3f2b6454	0.66949964
19	0x3b1ad2a4	0.0023624087
20	0x3d0eee98	0.03489551
21	0x3f427c94	0.7597134
22	0xbb68a110	-0.0035496391
23	0xbf1ab61a	-0.60434115
24	0xbf31059e	-0.69149196
25	0x3f39cc05	0.72576934
26	0xbec667d9	-0.38751104
27	0x3f194a9f	0.5987949
28	0x3bc8eb20	0.0061315447
29	0x3e900f63	0.2813674
30	0xbc977691	-0.018489154
31	0xbf464c54	-0.7746022

_conv.2.running_var f4 [32]
0	0x3ef5167f	0.47868726
1	0x3ef914a3	0.48648557
2	0x3f186b8d	0.5953911
3	0x3f22964b	0.6351058
4	0x3e8ab098	0.27087855
5	0x3f42c52f	0.7608213
6	0x3f27e7a5	0.65587837
7	0x3e9c56f1	0.3053508
8	0x3e9a42ec	0.30129182
9	0x3f07a876	0.52991426
10	0x3ef0b2e7	0.47011492
11	0x3f5020b6	0.8129991
12	0x3e97fe8b	0.29686388
13	0x3eaa43db	0.33254895
14	0x3e50506e	0.20343181
15	0x3f12c2d5	0.5732854
16	0x3f092203	0.5356752
17	0x3f33f7e5	0.7030013
18	0x3ea7f34a	0.32802802
19	0x3f2dda95	0.67911655
20	0x3d99b82b	0.075058304
21	0x3e9229c6	0.28547496
22	0x3f12e143	0.5737497
23	0x3e8134db	0.25235638
24	0x3ea9d766	0.33172148
25	0x3eb0ab26	0.34505576
26	0x3f2cfe5e	0.67575634
27	0x3ec919df	0.3927755
28	0x3f3bcdc2	0.73360837
29	0x3f487c1b	0.7831437
30	0x3f43ba84	0.76456475
31	0x3e7a7171	0.24457337

_conv.2.weight f4 [32]
0	0x3ebce024	0.36889756
1	0x3f00d31d	0.50322133
2	0x3f3e2c6e	0.74286544
3	0x3edc523d	0.43031493
4	0x3f0e7b05	0.5565646
5	0x3f5ab8ce	0.8543824
6	0x3f1adcd6	0.6049322
7	0x3eda67ea	0.42657405
8	0x3c80238e	0.015641954
9	0x3e7a17dd	0.24423166
10	0x3f40e6bd	0.7535208
11	0x3ee1905a	0.44055444
12	0x3e7b8a76	0.24564537
13	0x3e983d77	0.29734394
14	0x3f46ff66	0.7773346
15	0x3e199fb0	0.15002322
16	0x3f1ffb9b	0.62493294
17	0x3f8472c0	1.0347519
18	0x3f10db3a	0.56584513
19	0x3ed20e7e	0.41026682
20	0x3f20daa4	0.6283362
21	0x3f14065e	0.57822216
22	0x3f1700cb	0.58985585
23	0x3e661bd0	0.22471547
24	0x3f46863b	0.7754857
25	0x3e12b419	0.14326514
26	0x3f4b2d51	0.7936602
27	0x3f57c2fb	0.8428189
28	0x3ee7779e	0.45208448
29	0x3ee67df8	0.45017982
30	0x3e69d16d	0.22833796
31	0x3eedcd63	0.4644576

_conv.3.bias f4 [3]
0	0x3c93096e	0.017948832
1	0xbd1b0e9a	-0.037855722
2	0xbd26c84e	-0.04071837

_conv.3.weight f4 [3, 32, 1, 11, 11]
0	0x3dc25ddc	0.094905585
1	0x3d444e8e	0.047926478
2	0x3cca41e7	0.024689628
3	0xbc22e64d	-0.009942603
4	0xbc098d3b	-0.008395488
5	0xbc8c358d	-0.017115379
6	0xbc05d4bc	-0.008168396
7	0x3d59cfab	0.053176563
8	0x3d6cdf85	0.057830352
9	0x3ddc2d0f	0.10750782
10	0x3d9ca958	0.07649487
11	0x3dbffa02	0.09373857
12	0xbc0903e1	-0.008362741
13	0xbceba74c	-0.028766297
14	0xbd397568	-0.045277983
15	0xbd39c3e2	-0.045352824
16	0xbd91986c	-0.0710915
17	0xbd22ba5b	-0.039728504
18	0x38734c18	5.8006583e-05
19	0x3ca42cb5	0.02004085
20	0x3d4b881d	0.049690355
21	0x3d0b409e	0.03399717
22	0x3dae1230	0.08499563
23	0xbb62d7f9	-0.0034613593
24	0xbd7e4f25	-0.062087197
25	0xbd988b71	-0.07448471
26	0xbdaed74f	-0.085371606
27	0xbdac10a4	-0.084016114
28	0xbd2d505f	-0.042312976
29	0xbcd8cea7	-0.026465727
30	0xb9fc9336	-0.00048174866
31	0x3be61610	0.007021673
32	0xbd102352	-0.035189934
33	0x3de11296	0.10989873
34	0x3d316195	0.043305952
35	0xbccf5dd2	-0.025313292
36	0xbd3de266	-0.04635849
37	0xbd497383	-0.049182426
38	0xbd744686	-0.05963757
39	0xbd6e7c80	-0.0582242
40	0xbd3f872f	-0.04675978
41	0xbc318f3a	-0.0108373705
42	0xbd09da5f	-0.03365552
43	0xbd860224	-0.06543377
44	0x3e19c5af	0.15016817
45	0x3d76b293	0.060228895
46	0xbac0b95e	-0.0014703681
47	0xbbbf4d3d	-0.005838065
48	0xbd1200c4	-0.03564526
49	0xbd4908c7	-0.049080636
50	0xbd6fa987	-0.058511283
51	0xbca3fb60	-0.020017326
52	0xbcf9b644	-0.030482419
53	0xbcd97734	-0.026546098
54	0xbd578789	-0.05261949
55	0x3e0fa473	0.14027576
56	0x3dbc9108	0.0920735
57	0x3cd762ed	0.026292289
58	0x3ac0703c	0.0014681886
59	0xbd068914	-0.03284557
60	0xbd1fa8ac	-0.038979217
61	0xbcc847fb	-0.024448385
62	0xbc8568d2	-0.016285334
63	0xbcbf0eac	-0.023322426
64	0xbc210ddc	-0.0098299645
65	0xbda3907c	-0.079865426
66	0x3e0a5c74	0.1351183
67	0x3db59af0	0.088674426
68	0x3d496123	0.049164902
69	0x3ca737db	0.020412376
70	0xbc99164b	-0.018687388
71	0xbca9fac1	-0.020749452
72	0xbcb8c808	-0.02255632
73	0xbd062cc3	-0.03275753
74	0xbd272821	-0.040809754
75	0xbd01d935	-0.031701285
76	0xbda4328f	-0.08017456
77	0x3dd4f1e8	0.103977025
78	0x3d1d0a5d	0.03833996
79	0x3d1c683d	0.038185347
80	0x3bcf1779	0.006319937
81	0x3cca63e9	0.024705844
82	0xbc905803	-0.017620092
83	0xbc9250a3	-0.017860716
84	0xbcc02200	-0.023453712
85	0xbccbbff2	-0.0248718
86	0xbd102483	-0.03519107
87	0xbdc1beef	-0.09460246
88	0x3d680dbc	0.056653723
89	0xbaf98721	-0.0019037464
90	0xbc7996a2	-0.015233668
91	0x3af8589d	0.0018947307
92	0x3c43ce48	0.011951037
93	0xbca4bfe0	-0.020111024
94	0xbcb48a39	-0.022038566
95	0xbcdb6574	-0.026781775
96	0xbcb47061	-0.022026243
97	0xbc1f3e89	-0.009719499
98	0xbdb9bffc	-0.09069821
99	0x3aa50a1d	0.0012591515
100	0xbcc8963d	-0.024485702
101	0xbc905ff9	-0.017623888
102	0xbccf4d0f	-0.0253053
103	0xbc2642f3	-0.010147798
104	0xbd1a93a0	-0.037738442
105	0xbd0cd83b	-0.0343859
106	0xbbfbef2d	-0.007688424
107	0xb9b8d6cc	-0.0003525525
108	0x3c22ee51	0.009944514
109	0xbd42ee79	-0.047590706
110	0xbd51e865	-0.05124702
111	0xbd5ed896	-0.05440577
112	0xbd639620	-0.055563092
113	0xbd4eb41a	-0.050464727
114	0xbd6e35fb	-0.05815695
115	0xbd3972d3	-0.04527552
116	0xbd17ccd9	-0.037060592
117	0xbb311247	-0.002701895
118	0x3bc7795b	0.0060874647
119	0x3c64d03c	0.013965663
120	0xbd28854d	-0.04114275
121	0x3c84e554	0.016222633
122	0xbcc732b6	-0.024316173
123	0xbd717efd	-0.058958996
124	0xbd49b29e	-0.04924261
125	0xbc989748	-0.018626824
126	0xbc60f426	-0.0137300845
127	0x3bc16c47	0.0059028002
128	0x3b9f84dc	0.004868133
129	0xbcc2d792	-0.023784433
130	0xbd4df378	-0.050281018
131	0xbd1ea60c	-0.038732573
132	0xbab6ce82	-0.0013947042
133	0xbc8c2ffb	-0.017112723
134	0xbd68a1c7	-0.056794908
135	0xbd8737de	-0.06602453
136	0xbd30c26c	-0.043154165
137	0xbccb5a4c	-0.02482333
138	0xbc9ea4f0	-0.019365758
139	0xbd15025e	-0.03637921
140	0xbd05cc8e	-0.03266578
141	0xbd05e2b8	-0.03268692
142	0xbcddca43	-0.027073985
143	0x3c0cddfb	0.008597846
144	0xbd037ad9	-0.03209958
145	0xbd73e2ed	-0.059542585
146	0xbd1053da	-0.035236217
147	0xbd244abc	-0.040110335
148	0xbd33b0c9	-0.043869767
149	0xbcc8963d	-0.024485702
150	0xbcefa07a	-0.029251326
151	0xbc224eb1	-0.009906457
152	0xbc901bdf	-0.017591415
153	0x3c801c1e	0.015638407
154	0x3c956088	0.018234506
155	0xbca641ac	-0.020294987
156	0xbcaab512	-0.020838294
157	0xbd067271	-0.032823984
158	0xbd197e86	-0.037474178
159	0xbb321e17	-0.002717858
160	0xbb0245d9	-0.0019878058
161	0xbb104f4b	-0.0022019919
162	0x3c60b483	0.013714912
163	0x3c5ed111	0.01359965
164	0x3c5211fb	0.01282167
165	0x3d294dd1	0.041333977
166	0x3cbbe27a	0.02293514
167	0xbc81fb2d	-0.01586684
168	0xbc8528ac	-0.016254745
169	0xbca4308c	-0.02004268
170	0xbc19c475	-0.009385218
171	0x3bdaee32	0.006681227
172	0x3aa3dc63	0.0012501593
173	0xbadeeb01	-0.0017007292
174	0x3d08ec2f	0.033428367
175	0x3d3b4ad9	0.045725677
176	0x3d23eccf	0.04002076
177	0x3d195b18	0.03744039
178	0x38d53329	0.00010166161
179	0x3b893a04	0.004187824
180	0x3be0e0f0	0.006862752
181	0x3c01c71f	0.007921009
182	0x3c93eae2	0.018056337
183	0x3cec93f5	0.028879145
184	0x3bf5c1e6	0.007499921
185	0x3ce9b0ab	0.028526625
186	0x3d443b42	0.047908075
187	0x3d70026f	0.05859607
188	0x3d49d36f	0.049273904
189	0x3d1690cf	0.036759194
190	0x3babc91d	0.0052424804
191	0x3cabfda5	0.02099497
192	0x3cfb4830	0.03067407
193	0x3d567922	0.052361615
194	0x3cb51ac6	0.022107493
195	0x3ca85dce	0.020552542
196	0x3ce0803d	0.027404899
197	0x3cef3aad	0.029202783
198	0x3da6ef9a	0.08151169
199	0x3da5afbe	0.08090161
200	0x3cf9668f	0.030444412
201	0x3cae8348	0.021302834
202	0x3bc8a22a	0.006122847
203	0x3d39fee6	0.045409106
204	0x3d21d19b	0.039506536
205	0x3c9eb4fe	0.019373413
206	0x3a841176	0.0010076005
207	0x3b768f05	0.0037621867
208	0x3cbe0ca3	0.023199385
209	0x3d5e5e9f	0.054289456
210	0x3d5626ca	0.052283086
211	0x3c5a7ce8	0.013335444
212	0xbc402bcc	-0.011729192
213	0xbb70ef96	-0.0036763898
214	0x3bc25cab	0.005931457
215	0x3cc6e928	0.0242811
216	0x3ce38952	0.02777544
217	0xbb671523	-0.0035260401
218	0xbb38622a	-0.0028134682
219	0x3bdb1b09	0.0066865725
220	0x3d0397db	0.032127243
221	0x3cdcfeec	0.026977025
222	0x3d06e645	0.032934446
223	0x3aa1a551	0.0012332593
224	0xba2c19a2	-0.0006565099
225	0x3cd037fd	0.025417322
226	0x3cfa5e65	0.030562589
227	0x3cda145c	0.026621036
228	0x3c6eb3a0	0.014569193
229	0x3b729b59	0.0037018864
230	0x3cb45bcc	0.022016428
231	0x3c98053e	0.018557187
232	0x3d4ba31c	0.0497161
233	0x3c929ee3	0.017898029
234	0x3d0c02a4	0.034182206
235	0x3cf03fac	0.029327236
236	0x3d0b5baa	0.034022965
237	0x3c351881	0.0110532055
238	0x3c8494c6	0.016184222
239	0x3ba3057e	0.00497502
240	0x3c2a3f00	0.010390997
241	0x3d12be9d	0.035826314
242	0x3d74e9e3	0.059793364
243	0x3cac739d	0.021051222
244	0xbb4bdfec	-0.003110881
245	0xbc256523	-0.010094914
246	0xbd057232	-0.03257961
247	0xbda351ac	-0.07974562
248	0xbdb3a500	-0.087717056
249	0xbd5ce2ea	-0.05392734
250	0xbd5cf2ee	-0.053942613
251	0xbdc48ea5	-0.0959752
252	0xbe0be161	-0.13660194
253	0x3cf890c7	0.030342473
254	0xbb8bca3a	-0.0042660506
255	0xbc8d20ad	-0.017227495
